system/perf/proprietary/system_ext/etc/perf/wlc_model.tflite (tflite, 509596 bytes, 9 tensors)

sequential_10/dense_57/BiasAdd/ReadVariableOp/resource f4 [200]
00000000: de42 62c0 6549 74c0 cd43 643f cd1d 06c0
00000010: 23f9 47c0 913b 7cbe 669d 43c0 4560 3cc0
00000020: ceac 20c0 9754 44c0 2743 983f fc51 273f
00000030: a39e 1fc0 1a77 5dc0 86e2 923f bd39 1cc0
00000040: 2ff0 69bf 2052 0fc0 f5d4 743f 71ba 97bf
00000050: a604 6ebf d16f c6bf f2f6 37c0 0862 18c0
00000060: 9809 14c0 588c d8bf 811b bdbf b5f5 853f
00000070: bf46 78bf 89e7 2ec0 459b 61be 104c 43c0
00000080: d4d0 a13f 6c69 e8bf 34c7 91bf bf5a 79bf
00000090: d914 04c0 d771 debf ced2 debf c0e0 fcbf
000000a0: 691d 7fc0 6cfa 67c0 0a94 903d fe63 08bf
000000b0: 7236 1bc0 21cb 30bf f8ee 13c0 7c83 35c0
000000c0: a240 9dbf fb72 4fc0 3bc4 68bf 2d74 cebf
000000d0: f9ed 7cc0 d615 a33f bb2c 89bf 64c3 b0bf
000000e0: 8931 bcbf ad64 74bd f096 94bf 3052 283f
000000f0: 5e2b 3cc0 e538 cabe fafd ecbf 9bfb a83f
00000100: 1491 573e a120 9c3f a544 1cc0 c5ef 34c0
00000110: 0e2b 753f df10 a0bf 3ddf 253f 6619 39c0
00000120: 7a5e 96bf 107e 22c0 21d5 183f f066 15c0
00000130: ed86 26c0 8fc9 f03e 605d 3dc0 8cd2 20c0
00000140: 1fcb 19c0 8e35 3c3e 1b1e fcbf 1095 e3bf
00000150: 2b86 2abf 578a 0cc0 8123 60bf 0a62 7cbf
00000160: 30f0 cf3e 180b 26bf 4b09 f2bf 2ec2 4fc0
00000170: 6dba dbbf ec00 34c0 cce6 36c0 e066 36be
00000180: 551f 6d3f 3960 b4bf 6b5f b03f 2039 1ac0
00000190: a66d 78c0 630b 72c0 aade 28c0 0ba1 913f
000001a0: 18a5 48bf ee01 98bf 7836 31bf 63a4 12c0
000001b0: 1a6e e6bf 6893 7bc0 38ad 5ac0 e73a babf
000001c0: 9f8a 823f 8d1b 7cc0 5896 963f 55fe 983f
000001d0: fa86 05c0 60f0 01c0 a9dc 23c0 a283 d1be
000001e0: ca28 0ec0 3a58 753f 5a56 89bf 87f7 fcbf
000001f0: ec15 0ec0 2f9f 16c0 8844 9fbf fe2e 7bc0
00000200: 9bf5 3dc0 428f 83be 1747 38c0 8e38 42bf
00000210: 8cd9 3dc0 f7b1 22c0 2849 d2bf b2be 7a3f
00000220: ced2 88bf 10c4 76c0 297a 4fbe 1895 10c0
00000230: 3597 c4bf 11c3 19c0 9e7a ab3f 93d8 2b3e
00000240: cfc8 bfbf 1d84 95bf 3c27 81be 565c 60c0
00000250: 6893 a5bf bfd4 9c3f 06f1 1cc0 5410 9c3f
00000260: a8bb dfbf 891e babf 0df5 813d e6ce 6fc0
00000270: d55d 8ebf 50d0 0ec0 5862 f7bf 3eb6 eebf
00000280: 3acd 53c0 547e dabf e011 3bc0 03b9 f4bf
00000290: 0b38 c33f 9735 c0bf db7a 37bf 9a77 0ec0
000002a0: 9093 cfbf 4d38 f2bf eb2c 2dc0 f394 25c0
000002b0: d7ae e0bf 5f56 9cbf 61a9 73c0 372a 17c0
000002c0: 813f 78c0 e294 663f 40e0 45c0 3e88 70be
000002d0: e917 35c0 9c02 78c0 be30 2b3f 5f3c 5ebf
000002e0: 07b2 67bf a476 5ac0 23ea 36c0 8b0f c8bf
000002f0: bbfb 013f ea83 973f dba7 05c0 9a34 1bc0
00000300: 3028 9cbf d38b 31c0 797e a93f 9a7b 9f3f
00000310: b0bf ad3f 1a77 8a3f 085f a03f 4d7f b4bf
-3.5353312 -3.8169796 0.89165956 -2.095569 -3.124581 -0.24632098 -3.0564818 -2.9433758
-2.5105472 -3.067663 1.1895493 0.65359473 -2.4940574 -3.4603944 1.147538 -2.441024
-0.91382116 -2.2393875 0.95637447 -1.1853772 -0.9297584 -1.5502874 -2.8744473 -2.3809834
-2.3130856 -1.691783 -1.4774019 1.0465609 -0.9698295 -2.7328818 -0.22031887 -3.0515175
1.2641854 -1.8157172 -1.1388917 -0.9740409 -2.0637724 -1.7378491 -1.7408082 -1.9756088
-3.98617 -3.6246595 0.07059486 -0.53277576 -2.425198 -0.6905995 -2.3114605 -2.8361502
-1.2285349 -3.2413929 -0.90924424 -1.6129204 -3.9520247 1.2741039 -1.0716776 -1.3809628
-1.4702617 -0.059666324 -1.1608562 0.6575041 -2.940147 -0.39496532 -1.8515007 1.3201784
0.21051437 1.2197458 -2.4416897 -2.8271344 0.9576882 -1.2505149 0.6479376 -2.8921752
-1.1747582 -2.5389442 0.5970021 -2.3344078 -2.6019852 0.47028777 -2.9588242 -2.5128508
-2.4030225 0.18379804 -1.9696687 -1.7779865 -0.66610974 -2.1959436 -0.87554175 -0.98587096
0.40612936 -0.6486068 -1.8909086 -3.2462268 -1.7166268 -2.8125563 -2.8578367 -0.17812681
0.92625934 -1.4091865 1.3779119 -2.4097366 -3.8816924 -3.781945 -2.6385903 1.1377271
-0.78376913 -1.1875589 -0.6922374 -2.2912834 -1.800235 -3.930872 -3.4168224 -1.4549226
1.0198554 -3.9391816 1.1764631 1.1952616 -2.0863633 -2.0302963 -2.560343 -0.4092074
-2.2212396 0.9583775 -1.0729477 -1.9763039 -2.220088 -2.3534658 -1.2442789 -3.9247432
-2.9681156 -0.25695235 -2.879339 -0.75867546 -2.966403 -2.542112 -1.6428576 0.9794723
-1.0689332 -3.8557167 -0.20261444 -2.2591 -1.5358645 -2.402531 1.3396795 0.16781835
-1.4983157 -1.1680943 -0.25225246 -3.5056357 -1.293561 1.2252425 -2.452211 1.2192483
-1.7479143 -1.4540569 0.06345568 -3.747003 -1.1122385 -2.2314644 -1.9326887 -1.8649366
-3.309401 -1.7069802 -2.922966 -1.9118961 1.5251478 -1.5016354 -0.7167184 -2.22605
-1.6216908 -1.8923432 -2.7058666 -2.5872161 -1.7553357 -1.2213858 -3.807213 -2.3619516
-3.878876 0.9007093 -3.0918121 -0.23489472 -2.8295844 -3.8751593 0.6687125 -0.8681087
-0.90506023 -3.4134912 -2.8580406 -1.5629743 0.50774735 1.1837132 -2.08837 -2.4250855
-1.2199764 -2.7741592 1.3241721 1.2459595 1.3574123 1.0817597 1.2529001 -1.4101349

sequential_10/dense_56/BiasAdd/ReadVariableOp/resource f4 [200]
00000000: b7a5 9fbe aa2c 383e fe48 993e d7e7 9bbe
00000010: 3fc0 06bd 4177 9bbe 6a8f e33e 9fbc 23bd
00000020: 6aed c1bd 2636 cdbe 94d4 d4be 2b73 9a3e
00000030: d2ba 5b3e 1139 9bbe 2c9a 65be f293 5abe
00000040: 93fa 9d3e d404 63be 32c0 3bbe 4d42 6dbe
00000050: 3acb bcbe d7d0 823e 813e 993e aef4 90be
00000060: 3340 aebe c8c2 ca3e 5f13 ef3d eea4 dfbc
00000070: 1986 0e3e 74b5 483e 429c 42be 628f afbe
00000080: 20e9 8b3e 566d 1cbe 1a2e 2fbe 9c14 a6be
00000090: 21fb c33e 62c4 e5bd edfb b8be 8bc0 8ebe
000000a0: 5c4f 823d 7f4f 8b3e ee7e 9dbe 8b3a 553e
000000b0: 7a7f 843c 6908 babd 7289 973e 17fc 8dbe
000000c0: 562a 9b3e f89e 6dbe 290b 82be a80b a53e
000000d0: 396e 9fbe 9e40 a6be 961b 913e bcaf 2bbd
000000e0: 4e75 84be 700f 8bbe af62 9f3e 9c9f 35be
000000f0: ebcb ad3e 7e5d c1be 0775 873e ad64 82be
00000100: 3515 523e d6d6 c1be ac48 e0bd 0a65 82be
00000110: 26ab 7cbe 89ab 213d ceab 8fbd d930 abbe
00000120: f83b beb9 b15d 57be 92d4 77be 27b7 8b3d
00000130: dda2 65be 1e16 51bd d212 a5be efd3 643e
00000140: a2ee 213e c6b7 8bbe ffe9 40be e798 a43e
00000150: ab79 bb3e fb0f 963e 2c76 1cbc e6c6 c2bd
00000160: e8af 85bd 61f1 64be 924f f7be 4c9f 413e
00000170: d270 ac3e 0e0f d2bd 2279 293e 0992 6d3d
00000180: 3e66 253e c408 8abe 2ab2 b83d ee35 bf3e
00000190: 19fc a1be 0884 b83e 1100 b9bd 56be 16be
000001a0: c8f8 c2be 5b62 bdbe e6d7 803d eab0 6dbe
000001b0: bfbf 58be ca6d 0abd 2916 753d a697 04be
000001c0: ec13 4abe 59d5 923e b175 823d 8a07 1f3c
000001d0: 9cdc da3d 418a 153f 1a22 0abe 8f5a 9f3e
000001e0: 46ce f93d ef00 b63e 0640 a1be 3b3b 0cbe
000001f0: 3c4f f0bd d45c b13e ab53 8e3e 29e9 68be
00000200: 2059 7a3e 0555 e3be df98 be3e 50ec cdbc
00000210: b7fe c3bc 5e64 243d 94eb a2be 338b 67bd
00000220: 4b92 e9bd 2001 a03e bfb4 dbbd 388b b4bd
00000230: 1573 ab3e 8531 183d 8b47 e9bd c107 ba3d
00000240: 5643 913e e0a3 a1be 81b9 783e d3b2 61be
00000250: 5173 343e dfe8 63bd de39 9fbe 74ed 023f
00000260: 3931 b0be a0a3 e33e ee07 bb3e 0a60 9fbe
00000270: dd84 9ebe b07b ee3e 02d7 66be ec6e 3fbe
00000280: 0a82 2ebe 4f90 913e 732d dabd 1a59 c0bc
00000290: cf61 0a3d 862d c93d ba57 a1be 4404 04be
000002a0: 8048 12be 4a41 b03e f2c2 8b3e dee8 2bbe
000002b0: 98a4 7bbe b2be 77be 4fa6 72be 17be a1bd
000002c0: 93ba 89bd dff2 8ebe a95e 7dbe 02d4 013e
000002d0: 824c f53d 1773 b23e cdfe 783e 6f96 cc3e
000002e0: f135 04be dabe e1bd a060 f33e fb99 8dbc
000002f0: a21c bf3e b96b a9bd e8bc e5bb b205 34be
00000300: 29ba 2ebe c6e5 f53e c5f6 b83e 61cb 023e
00000310: 5687 abbe 5cc7 b23e e57a a8bd 125a 9b3d
-0.31181118 0.17985788 0.299385 -0.30450317 -0.032898184 -0.3036442 0.44445354 -0.039974805
-0.09469111 -0.40080374 -0.41568434 0.3016599 0.21457985 -0.30316976 -0.22422093 -0.21345499
0.30855235 -0.2216981 -0.18335035 -0.23169823 -0.368738 0.25549957 0.299305 -0.28311676
-0.34033355 0.3960173 0.116736166 -0.027300324 0.13918342 0.19600469 -0.1900492 -0.3428908
0.27326298 -0.15276083 -0.1710743 -0.324376 0.38277534 -0.11219098 -0.36129704 -0.27881274
0.06362793 0.27209088 -0.30760902 0.20823114 0.016174067 -0.09083635 0.2959705 -0.27731392
0.30305737 -0.23205173 -0.2539914 0.32235456 -0.3113878 -0.32471174 0.2834136 -0.04191564
-0.25870746 -0.27160215 0.31129977 -0.17736667 0.3394464 -0.3776664 0.26456472 -0.25467435
0.20515902 -0.3785922 -0.10951361 -0.25467712 -0.24674663 0.03947023 -0.07015191 -0.33435705
-0.00036284304 -0.21031834 -0.24202183 0.06822043 -0.22425409 -0.051046483 -0.3224092 0.22346471
0.15813687 -0.27288646 -0.18839262 0.32147905 0.36616263 0.29309067 -0.009549659 -0.09510593
-0.06527692 -0.22357704 -0.48302895 0.18908423 0.33679825 -0.10256778 0.16550115 0.058000598
0.16152284 -0.26959813 0.09018357 0.37345833 -0.31637648 0.36038232 -0.09033216 -0.14721045
-0.3808043 -0.36989102 0.06291179 -0.23212019 -0.21166895 -0.03379611 0.059835587 -0.12948474
-0.19734162 0.28678396 0.06370104 0.009706387 0.10686609 0.58414084 -0.13489571 0.31123778
0.12197547 0.35547587 -0.31494159 -0.1369447 -0.11733863 0.34641135 0.2779821 -0.22745194
0.24448061 -0.44400802 0.37226006 -0.025137097 -0.023925168 0.04013478 -0.31820357 -0.056529235
-0.11404856 0.31250858 -0.10727834 -0.08815616 0.33486238 0.0371566 -0.11390599 0.0908351
0.28371686 -0.3157034 0.24289514 -0.22040872 0.17622115 -0.055642005 -0.31098837 0.51143575
-0.34412554 0.44460773 0.36529487 -0.3112796 -0.30960742 0.4657874 -0.22542956 -0.18694657
-0.17041793 0.2843041 -0.106532 -0.023479987 0.033784684 0.09823136 -0.31512243 -0.12892252
-0.14285469 0.34424812 0.2729717 -0.1678805 -0.24574506 -0.24193838 -0.23696254 -0.07897585
-0.06725039 -0.2791967 -0.24743141 0.12678531 0.11977483 0.34853432 0.24315949 0.39958522
-0.12911202 -0.1102273 0.47534657 -0.017285338 0.37326533 -0.082724996 -0.007011045 -0.17580298
-0.17063202 0.48026866 0.3612577 0.12772895 -0.3350169 0.34917724 -0.08226565 0.07585539

sequential_10/dense_55/BiasAdd/ReadVariableOp/resource f4 [200]
00000000: dd0f a43b a595 09be 7086 c0bd 2db3 57bd
00000010: 262a e5bc 6091 fd3d 71ab 16bc abe9 97bd
00000020: 5085 26be da06 83bd 687a 893d 3c5c c6bd
00000030: 92f6 e13c 078f 1ebe 9dd0 06bc 2462 133d
00000040: cd39 6f3d 0793 0bbd 2094 2cbe 71c3 1dbe
00000050: bb78 cfbd 721c 843e 1ecb 853b 1c9d c63e
00000060: 11f1 77be a93f fe3d 39d8 febd 86bb 58bd
00000070: bac0 503d 9079 6e3e b909 6abe 6329 7e3d
00000080: 375d 53be 553e 32be 139f 6abe 73f9 a5bd
00000090: 331a 58bd 8fde 1bbe 53d0 0fbe 1e6b 16be
000000a0: 974a 7f3e fb1e fc3d 79a0 d33c a573 ffbd
000000b0: 37d8 be3c 5180 d93e d799 1cbe e8a8 303e
000000c0: faa5 12be 01e8 af3e f30f 1b3e 0621 2c3e
000000d0: 4436 b33c f56d c5bc fec2 3abb d0bd 1ebe
000000e0: e47b 583d c54c 2ebe a074 2b3e 59ed e7bd
000000f0: f56a 763e ef30 213d aff2 1ebe d449 c8be
00000100: 8ec2 913e 6211 833e 72e9 acbe 565e 013d
00000110: 8d4c 87bd d568 bb3e 0d95 8b3e 54f6 71bd
00000120: 3b73 91bc a414 9e3e 535f 9e3e c2ad 793d
00000130: 0d49 143e 071a 72be 3415 76be a0d3 563d
00000140: 52e9 d63e ec0e 583e 651d 20be ef20 79bd
00000150: 77ff 433c fb73 9dbe 97a6 5abd 267d 49be
00000160: a05a 4cbd 0812 5b3e 6aaa 9dbd 5322 0d3c
00000170: 9180 77bd ee8f db3d 18d3 3dbe 02e2 a83e
00000180: 6050 11be e72f f3bc 8788 dfbb c17f 76bd
00000190: 04e1 9dbc f8bd 4a3e 6ca4 493e ca3e cc3c
000001a0: d1e4 cb3c c6d9 673d 02d0 563e b16f 173e
000001b0: 06ed 603e 97fb 063d 0092 a53e 604d 8bbd
000001c0: 1a86 1bbe ffe1 bd3e 82e1 12be 269b 743e
000001d0: 9cf2 89bd 64eb 1ebe be50 92bd f777 e2bc
000001e0: 7aa5 4e3e 91d3 0fbe ba77 aa3e ec80 103d
000001f0: 93d5 a23c bd07 013e d0f4 353e 7d0a 80bd
00000200: 5de8 0bbd 8e38 553c 1aa8 133e 494a 36be
00000210: 8679 183e fb00 843d 7c0f 353e f2a3 1cbe
00000220: cae7 9e3e effe b4bd 94a8 e23d 3500 44be
00000230: f2a3 29bc 058d be3e 3d0b c73e 15df 12bd
00000240: 096a ff3d b6d7 c0be e930 e03d 64e0 9d3d
00000250: ca83 223d 1d16 313d 84ca debd c906 2fbe
00000260: 718b 8d3e 8547 e93d 5070 463e 4a65 9abd
00000270: b808 95b9 351b e33d 7b8d 0fbc b628 f13c
00000280: 5351 b03d d2e8 0abd 5e79 2fbb a5be 89bd
00000290: 882f 4ebe 00dc 863e 89a9 e0bd 2c93 8dbc
000002a0: e7cf 963b 412d 273e 0709 c33d 2de6 b8bd
000002b0: 8a1d 05be e236 be3d 384f b53e 4347 8b3e
000002c0: 3982 853e 4986 ebbd c645 dd3d 145a 6cbd
000002d0: 8255 bdbc 78d7 833e b675 8abd 9f81 943d
000002e0: d6a3 07be 4c07 de3e 9590 a33e bfb2 86be
000002f0: 67e2 a73c 2163 c03d abc2 4d3e b029 e3bd
00000300: 8f51 8e3e 829b 98be 307d 84be 8dc0 c33c
00000310: 541a da3b d5a1 25bd b085 313c b627 8b3d
0.005006774 -0.13435991 -0.09400642 -0.05266111 -0.0279742 0.12381244 -0.009196148 -0.074176155
-0.16261792 -0.06397791 0.067128 -0.09685561 0.027583394 -0.15484248 -0.008228448 0.035982266
0.058404732 -0.034075763 -0.1685338 -0.15406586 -0.101304494 0.25802952 0.0040830513 0.3879174
-0.24213053 0.12414486 -0.12443585 -0.05291321 0.05096505 0.2328856 -0.22855271 0.06205119
-0.20641027 -0.1740659 -0.22912244 -0.08104219 -0.05275936 -0.15221618 -0.14044313 -0.146893
0.24930798 0.123105966 0.025833355 -0.12473229 0.023296459 0.4248071 -0.1529306 0.17251933
-0.14321128 0.34356692 0.15142803 0.16809472 0.021876462 -0.024100283 -0.0028497572 -0.15502095
0.052852526 -0.17021473 0.16743708 -0.11324567 0.24064238 0.039353307 -0.15522264 -0.39118826
0.28468746 0.255992 -0.33771855 0.031584106 -0.06606398 0.36603418 0.27262154 -0.059072807
-0.017755141 0.30875123 0.30932102 0.060956724 0.14480992 -0.23642741 -0.24031526 0.052447915
0.41974884 0.21099442 -0.15636213 -0.060822424 0.011962763 -0.3075255 -0.05338153 -0.19676647
-0.049891114 0.21393597 -0.076985195 0.008614141 -0.060425345 0.10720812 -0.18537557 0.3298493
-0.14190817 -0.029685928 -0.0068216952 -0.06018043 -0.019272335 0.1979903 0.19691628 0.024932284
0.024889382 0.05660417 0.20977786 0.147887 0.21965417 0.03295478 0.32337952 -0.068018675
-0.15187874 0.37086484 -0.14343837 0.2388731 -0.06735727 -0.15519482 -0.071443066 -0.027645094
0.20180312 -0.1404555 0.3329447 0.0352792 0.01987723 0.12600608 0.1776917 -0.062520005
-0.034157146 0.013013972 0.14419594 -0.17801775 0.14890108 0.064454995 0.17681688 -0.15296915
0.31036216 -0.08837687 0.1106731 -0.19140704 -0.010354029 0.37216964 0.38875762 -0.03585728
0.124713965 -0.37664574 0.10946829 0.07708815 0.039676465 0.04323398 -0.108784705 -0.17092432
0.27645448 0.113905944 0.19378781 -0.075388506 -0.0002842599 0.11089174 -0.008761759 0.029438358
0.08609261 -0.03391344 -0.0026775221 -0.06725816 -0.20135319 0.26339722 -0.10969836 -0.017282091
0.0046024206 0.16325857 0.09523206 -0.090282775 -0.1299955 0.09287812 0.35412002 0.27202806
0.26075915 -0.11500222 0.10804324 -0.057703093 -0.023112062 0.25750327 -0.06760733 0.07251286
-0.13246092 0.43364942 0.31946245 -0.26308247 0.0204937 0.09393907 0.20093791 -0.11091936
0.277966 -0.29806143 -0.2587676 0.023895526 0.0066559706 -0.04043754 0.010835096 0.06794684

sequential_10/dense_54/BiasAdd/ReadVariableOp/resource f4 [200]
00000000: 59fc 603c d6e7 6d3d eb38 52be 5715 47be
00000010: f5fa 3cbe 2b27 7fbe d4ff 78be ff73 5fbe
00000020: bc72 85be 6103 4dbe de7c c0be 0728 073d
00000030: 7c60 a4be 736c 3fbe 6057 80be 2ace 65be
00000040: 4330 adbd 195c 04be f38d c3be 19b9 9ebb
00000050: 7f1f fcbd 5959 7cbe 8b1d 77be 8aac b9be
00000060: a4ee 243d 3234 3ebe 5ed2 6c3c a321 39be
00000070: 8731 b4bd 4c6f 36be eca2 27be c01a 49be
00000080: 80db 8abe bd76 b8bc d7b9 5ebe a17a e63d
00000090: c72f 74be 5b77 9cbd 1e1a 00be 8c5e 83bd
000000a0: 8460 23be 6abd 84be c67b 20be d4a1 af3c
000000b0: 47cd 373e 4a65 82be db63 52be bf06 81bd
000000c0: d11d 1bbe 227a 1ebd 24e9 553c c40b 50be
000000d0: fa04 3ebe 056c 50be a9ab 18be cc34 4a3d
000000e0: 8ceb 10be 289c fabd bf5e a3be 68aa a5bd
000000f0: 06bf 87bd d402 ebbc fb5d 3abd 874e 45be
00000100: f50b 5ebe 209c 22be e52b 8ebe a798 d93d
00000110: 92c1 babe 1f54 16bd 23fb adbb 4770 36bd
00000120: cfc5 87be 135c 5ebd d7ba e0bd a47c 993d
00000130: b6cd 2bbe 2655 18be f080 1abc 3a20 b9be
00000140: a7ca 95bd c0bd 6cbe 87e5 52be c096 e4bc
00000150: 7491 40be 738d 2bbe 3da0 2cbe 9ec0 913d
00000160: feb5 90be 644e 43be ddd5 6d3d 9c7d 83be
00000170: 3452 eabd 680e 31be 36d5 79be b277 59be
00000180: 9049 ec3c ba96 e83c 348d 8cbd 8100 633c
00000190: 3a9f 74be 5a47 1cbe 9dd5 92bc a2bb 00be
000001a0: 87e3 19be a999 0bbe 7f27 63be 6dab 7cbe
000001b0: 41b7 16bd ec25 42be eb77 8dbe aea1 06be
000001c0: 87a1 d9bd 8a9f 4bbe 2676 da3a bfc8 b23d
000001d0: 7b5b 56bd fd86 d8bd ebc8 8ebe fa2f 45be
000001e0: 6f79 8bbe bdbe aaba 9c36 e5bd 2dfa 6fbe
000001f0: 59d4 1ebd 0385 adbe 9681 a93d 07ae d6bd
00000200: 2b53 66be 1225 7cbe b3c7 9dbe a78c 38bd
00000210: 5f87 31be 7216 0fbe 5f46 e9bd 2ed4 12be
00000220: b64e 91be 5cd9 72bd 1d99 e1bd 17f3 453c
00000230: 2d42 46be db17 41be 4676 50be 968b 4ebe
00000240: ceba 25be ca9a d8be c9a0 c2be 0a1c a0be
00000250: 798b dd3c b0cf c6bd 991f 6cbe c172 65be
00000260: 422d 643d e86d 80ba 57c7 d9bb 43bf 8cbc
00000270: e46e afbd 6d32 75be d2af 16be 52a7 13be
00000280: b0c4 b7bd 4457 4abd 271b 37be 3707 4bbe
00000290: aeb6 56be fdf3 48bd 9b17 15bd 9909 22be
000002a0: 2d1d 8abe 6289 adbe fd8e eabd 5eed f0bc
000002b0: c780 64bd 7bbb 2dbe 51cb 3cbe 67e0 5cbc
000002c0: d4c4 f0bd 36a5 afbd c4d9 4fbe e23f d6be
000002d0: 2850 87be fcb3 b23b a4f1 afbd f0ed 2ebd
000002e0: c6c3 aabc db54 6dbe d217 16be efbc 2abe
000002f0: aa43 92be 234e d4be 0c4d 6abe cda8 23be
00000300: 955f 4b3b 5558 2dbe 0ef4 8abe 6e8d 25be
00000310: a18c 49be 9fd6 f6bd 4340 1dbe 7bba 8cbe
0.013732039 0.058082424 -0.20529525 -0.19441734 -0.18455108 -0.24917285 -0.2431634 -0.21821593
-0.26064098 -0.2002082 -0.37595266 0.032997157 -0.32104862 -0.18693714 -0.25066662 -0.22441927
-0.08456471 -0.12925757 -0.38194236 -0.0048438427 -0.12310695 -0.24643458 -0.24132363 -0.3626445
0.040266648 -0.18574598 0.014454452 -0.18079238 -0.08798509 -0.17815894 -0.16370744 -0.1963911
-0.2712059 -0.022517556 -0.2175058 0.11253858 -0.2384635 -0.07639953 -0.12509963 -0.06414518
-0.15954787 -0.2592576 -0.15672216 0.02143947 0.17949401 -0.25467902 -0.20545904 -0.06300115
-0.15148093 -0.038690694 0.013056073 -0.20316988 -0.18556586 -0.20353706 -0.14909233 0.049366757
-0.14152354 -0.12236816 -0.31908223 -0.08089143 -0.06628232 -0.028687872 -0.045499783 -0.19268237
-0.21684249 -0.1587987 -0.27767864 0.10624819 -0.36475807 -0.036701318 -0.005309479 -0.04454067
-0.26518103 -0.054287028 -0.10973137 0.074944764 -0.16777691 -0.14876232 -0.009430155 -0.361574
-0.073140435 -0.23119259 -0.2059537 -0.027903914 -0.18805486 -0.16753177 -0.16858001 0.07116817
-0.2826385 -0.19072872 0.058065284 -0.2568177 -0.1144146 -0.17290652 -0.2439774 -0.21237066
0.028843671 0.028392185 -0.0686287 0.013855101 -0.23888865 -0.15261593 -0.017924124 -0.12571576
-0.15028201 -0.13632835 -0.22183035 -0.24674769 -0.03679586 -0.18959779 -0.27630553 -0.13147613
-0.10626512 -0.19885078 0.0016667291 0.087296955 -0.052333336 -0.10572622 -0.27887663 -0.19256583
-0.27241084 -0.0013026815 -0.111920565 -0.23435278 -0.03877673 -0.33890542 0.0827667 -0.10482412
-0.22492664 -0.24623516 -0.3081642 -0.04505601 -0.17336796 -0.13973406 -0.11390375 -0.14338753
-0.28380364 -0.05928932 -0.11015532 0.012081883 -0.19361182 -0.18856756 -0.20357618 -0.20170435
-0.16184542 -0.42305595 -0.38013294 -0.31271392 0.027044045 -0.09707582 -0.23058929 -0.22407056
0.055707224 -0.000979838 -0.0066460776 -0.017181044 -0.085660726 -0.23945017 -0.14715508 -0.14419296
-0.08973062 -0.04939963 -0.17881452 -0.19826971 -0.20968124 -0.04906081 -0.036399465 -0.15823974
-0.26975384 -0.33893877 -0.11453054 -0.02941006 -0.055786874 -0.1696605 -0.18436934 -0.013481236
-0.11756292 -0.08576433 -0.20297915 -0.41845614 -0.26428342 0.0054535847 -0.08591011 -0.042707384
-0.020845305 -0.23176901 -0.14657524 -0.16673635 -0.2856725 -0.41465864 -0.22880954 -0.15982361
0.0031032313 -0.16928227 -0.27139324 -0.16167232 -0.19682552 -0.120526545 -0.15356545 -0.27486023

sequential_10/dense_54/MatMul f4 [200, 28]
00000000: b6b9 bc3e 6cbe debe 9b49 83be 40e6 e73e
00000010: 6d2d 083e 7ba4 923d e8fb b0bc 3f03 253e
00000020: 13e4 933d 6612 aabd aca3 afbc b94b 813d
00000030: e7c1 93be 3c13 833d 5e1e d23d 6929 0a3d
00000040: fd55 ad3d 12bd e4bd 6bb5 813e 5253 0a3e
00000050: 0dc6 e6bd 4fc9 283e 2cca 013e 79a3 35be
00000060: 0228 953e 9385 58be 14dc 82be a28b cd3c
00000070: 98d1 1a3e 9f14 6e3e b682 073f 536c 4dbc
00000080: 6189 74bd a2ff 3cbd 96f1 bc3d 49e1 efbc
00000090: 5c3a b6be 2229 24bd 0482 88be fce5 f6bd
000000a0: 417c 45be 5899 d5bb c1eb aabd 2055 fcbc
000000b0: 4092 9d3d 68b7 22be 7438 e63d b1e9 98bc
000000c0: 3db3 89bd 91bf 9f3e af20 573c 9e00 d13d
000000d0: 7430 363e e56b 69be 26dc 48bd 7ced 6f3c
000000e0: d197 64be 9e37 adbb c03f 83be 0624 95bd
000000f0: 3b86 81bc 072e f7be 3b32 4a3e 42e3 b03c
00000100: 8720 9c3c 36b7 0dbd bddc b83c fc93 72bd
00000110: 2b22 4a3d 4028 deba 27a6 cc3d f3ca 19bd
00000120: 1337 b53d 9f38 013d 4564 0bbc 8ec1 fc3d
00000130: 62b6 223e b25c c1bf 992d bbbd 28d8 853d
00000140: afaf 293d 1525 30bd 2fd9 3e3e 2af7 683e
00000150: 83f1 4ebd d1f3 613e 8d6b 94be bba1 08be
00000160: 51d6 cabd 67ea 773e 338c b33e a970 e83c
00000170: 5f2f da3d c293 efbb 5bad 223f d259 b93c
00000180: 2d52 ac3d 702b 223d c2a8 423e 33a1 093d
00000190: a10c 39bc 07f0 a73d 010e 1bbb 4534 0c3d
000001a0: 152d 2f3e 9e7d 473d bdad cfbd 6706 f63d
000001b0: a4d6 cfbc 6d3d c23d 9d9f c73e fd48 123e
000001c0: 1dd3 64bd c4be a03c 5de5 b33c 843f 263e
000001d0: ad78 04bd 7a7a c9be 1e06 353e 7376 163e
000001e0: 20c9 0c37 825f d33d 5172 6ebe 976b 713d
000001f0: 2cb6 67ba 696f 3f3d 1153 823d 478d 3c3d
00000200: 9b28 c5bc c030 dd3d 6784 42be 418e 91bb
00000210: 657e ad3d 65dc a8bf 9a53 f9bd 9776 0b3e
00000220: c019 a53d 232f d4bc 89be aa3d 8fc4 873d
00000230: c725 babd 1fc3 e03c 8781 7b3e 6fd4 5ebe
00000240: 6c5b 0f3c d1f6 83bd 679e 52be d493 213e
00000250: 857b 13bb 7247 633d b801 a5bd 20ae 85bc
00000260: 8d80 3dbd b4d7 ae3e a837 843c 8029 79ba
00000270: 310d 6e3c 1f46 a7be 3c1e 6f3e e42f abbe
00000280: b226 ce3d 6ad5 0a3d 3f99 5a3e c697 293e
00000290: 90df a83e 416b 74be 7c9b 36be cc6b 963e
000002a0: 75ee 103e 0bf6 a6be fa57 173d 4960 963d
000002b0: a5c5 9fbe 0847 933e c385 eabd 93d2 cfbd
000002c0: a1a9 7d3e 2a85 333e 4066 a23d 934e c43d
000002d0: f730 0fbe 6b6b 093e b289 db3d a653 28bd
000002e0: b094 333e 0eae 0a3e 2be3 a23e 76d7 273e
000002f0: b140 793e b6a2 1f3e 0e5e 733e 8d2f 94be
00000300: 8c79 d23e 55ae 18bd 7f42 57be e7e4 353e
00000310: 7162 a9be 4130 bf3d 7f33 b23e 6843 17be
00000320: 1465 423d 9fbb 28be cd24 553e d11f ba3d
00000330: 0a61 423c eee2 193e c9d7 5cbc b02c f63c
00000340: 78ba 62be 1220 133d 74eb 36bc 00b0 01b9
00000350: 08ba d33d 7cd5 29bd 21a0 afbd a85e ee3d
00000360: 7d7e a93e 67c6 97bf 79d5 01be 2e77 b23a
00000370: dcdc 86bd 1afc 6b3d ec45 5fbd 9d73 4f3e
00000380: 29a7 71be 7507 0ebd b694 193d 00dd 3fbd
00000390: 4d27 b2bd 2147 a6be d189 373d 4d57 2a3e
000003a0: 04ef abbb f28e ab3e 73b0 81be 9997 4dbb
000003b0: bcb1 113e 045f ac3d 7994 c03d 7ab4 03bd
000003c0: dcd6 ba3c b15e cdbb ac7f 953d abad 163e
000003d0: e0cf 993e f2a2 c3bf bf72 b4bd a5fb b5bc
000003e0: 7381 403d 1a8a 3fbc 9694 1b3d b15f 503e
000003f0: efa9 a2be 331f 6e3d c39d 1cbd e631 13be
0.36860436 -0.43504655 -0.25642094 0.45292854 0.13298579 0.071602784 -0.021604493 0.1611452
0.07221236 -0.083042905 -0.02144035 0.06313271 -0.28858873 0.06400153 0.10259698 0.033730898
0.084636666 -0.11168875 0.25333723 0.13508347 -0.11268244 0.16483043 0.12674779 -0.17738141
0.29132086 -0.21144705 -0.2555853 0.025090996 0.15119016 0.23250054 0.52933824 -0.012538034
-0.059701327 -0.046142228 0.09225766 -0.029282229 -0.355914 -0.04007829 -0.26661694 -0.12055585
-0.1928568 -0.006518524 -0.08345748 -0.03080231 0.076939106 -0.15890276 0.11241236 -0.01866612
-0.0672364 0.3120084 0.013130351 0.10205196 0.17791921 -0.22795065 -0.049038075 0.014644023
-0.22323538 -0.005286171 -0.25634575 -0.072822616 -0.015811076 -0.48277304 0.19745724 0.02159274
0.019058479 -0.03459855 0.022566194 -0.05922316 0.04934899 -0.0016949251 0.099926285 -0.037547063
0.08848395 0.03154814 -0.008507793 0.12341605 0.15889886 -1.5106413 -0.091395564 0.06535369
0.04142731 -0.043004114 0.18637536 0.22750536 -0.050523292 0.22065665 -0.28988305 -0.13342945
-0.09904159 0.24210511 0.350679 0.028374033 0.106535666 -0.0073113153 0.6354577 0.022625837
0.08414111 0.039592206 0.19009688 0.033600997 -0.011294515 0.082000785 -0.002365947 0.034229536
0.17107041 0.048703782 -0.1014056 0.1201294 -0.025370903 0.09484372 0.38988963 0.14285655
-0.055865396 0.019622214 0.021959955 0.16235167 -0.032341648 -0.39351255 0.17678115 0.14693622
8.391478e-06 0.10320951 -0.23285796 0.058940496 -0.00088390964 0.04673711 0.063635 0.04603317
-0.024067214 0.10800314 -0.1899582 -0.004442007 0.084713735 -1.3192259 -0.12174149 0.13619457
0.08061552 -0.025901383 0.08337123 0.066292875 -0.09089237 0.027436791 0.2456113 -0.21760724
0.008749824 -0.06443561 -0.20568238 0.15779048 -0.0022504043 0.055488057 -0.080569685 -0.01631838
-0.046265174 0.34148943 0.01613982 -0.000950478 0.014529512 -0.32670686 0.23351377 -0.33434975
0.10065974 0.033894934 0.21347521 0.16561803 0.32983065 -0.23869039 -0.1783275 0.29379117
0.14153464 -0.3260959 0.036949135 0.07342584 -0.31205478 0.2876513 -0.11451294 -0.10147586
0.2477174 0.17531267 0.07929659 0.09585299 -0.13983522 0.13419883 0.10719623 -0.0410954
0.17537189 0.13542959 0.3181394 0.16390786 0.24341084 0.15589413 0.23766348 -0.28942528
0.41108358 -0.03727563 -0.2102146 0.177631 -0.33082917 0.093353756 0.34804913 -0.14771807
0.047459677 -0.16477822 0.2081482 0.090881 0.011863956 0.15027973 -0.013479182 0.030050606
-0.22141445 0.035919257 -0.011164535 -0.00012367964 0.10338217 -0.04146336 -0.08575464 0.11639148
0.33104315 -1.1857423 -0.1267909 0.001361584 -0.06585094 0.05761347 -0.054510042 0.20258947
-0.23598923 -0.03467508 0.037495337 -0.04684162 -0.08698902 -0.32476142 0.044809166 0.16634865
-0.0052469987 0.33507496 -0.25329933 -0.0031370877 0.14227957 0.0841656 0.09403319 -0.032154538
0.022807531 -0.0062673916 0.07299742 0.14714687 0.3004141 -1.5284102 -0.088109486 -0.02221472
0.046998452 -0.011690641 0.0379835 0.20349003 -0.31770274 0.058135223 -0.03823639 -0.14374503

sequential_10/dense_55/MatMul f4 [200, 200]
00000000: c6f4 883d c434 8e3d 4645 183e 05ff 6bbe
00000010: abf5 58be 258e 843c 236e fabd b893 813d
00000020: d739 9bbe a695 31bd f48a 223d e0f1 923e
00000030: 656a ccbd 7401 2abe 80b1 21bd af35 cc3d
00000040: 8608 babe 4a4f fe3d 9110 903d 83f0 54bd
00000050: 650d e0bd 2287 20be 6a27 3cbb eacb e63d
00000060: d2e5 80be f2b2 9fbe f6c6 80bd a30d e73d
00000070: 7f85 14be c709 4bbd 6245 1d3e e86a d8bd
00000080: 9628 11bd d400 453e d8fd 59bd 70b9 adbe
00000090: a095 383e f079 62bd a2d5 323e f28c 133e
000000a0: eeb5 20be 5832 17bd 847a b73c 6059 0cbe
000000b0: 77af febe a94a 093e 3cc9 27be 2ccf b7be
000000c0: d7f7 803d 35a4 3b3e 2d7f ccbe 3930 623e
000000d0: 83a3 84be 09b8 03bd cc24 0abe 5cc3 b3bc
000000e0: c985 0dbe 2501 b7bd a1da 91bd 39f4 11bc
000000f0: 16d6 06bd d0c9 90be 97e6 b2be 761b 19be
00000100: f9cd dcbc e0e1 dfbc f8ca 5abd 2f7e 07be
00000110: 7346 3c3d ffe4 f93d cbd8 6b3d a3ea cfbd
00000120: 83a5 b0bd 0a1a 80be 45bf 96be e331 2bbd
00000130: cc2d 1abe 5fe1 67be a469 0fbe 23a3 5dbc
00000140: cf89 1ebd f8eb bbbd b666 ca3c 275a 69bc
00000150: d22f a9bc b562 3e3d 9a39 d8bb 92b5 703d
00000160: d545 c23d c9d7 3cbe 9ca3 493d 77f5 dd3c
00000170: bf37 8bbc 4d5b df3d 0dd7 29be d546 fa3c
00000180: aaa1 093e fffb 95be 53c0 73bc 9240 e53d
00000190: 9181 83bd a267 6b3e ca79 b8bd e204 90bd
000001a0: d4ce 5d3d 4225 8bbe 259a 0bbf 1aab 7a3d
000001b0: 4fc3 1e3e ce62 28be ec0c 5fbd c274 a6be
000001c0: aaa6 a5bd db08 1abd b113 703d 3774 81be
000001d0: 96fa 523e f925 b9bd d9b4 2b3d 3d9b 883e
000001e0: 1753 c5be c4b3 9d3e 8842 02bd 5c15 60bc
000001f0: fc45 04be 61f3 0ebe 2238 b0be 6c1b 1b3e
00000200: 0317 4fbe e4e0 73bd b005 2abe 38aa b6be
00000210: 1cf1 c3bd 6976 53be 82ef 993d 64ac 88be
00000220: 0315 7cbe 4183 30be 7a6e 8abe ae57 223d
00000230: 05ae f1bd 409e 423e 6939 05be 6a67 e43e
00000240: ae99 493e a02c 1dbe b3a6 963d 94c1 74bd
00000250: 8eb0 f93d ea51 04bd c2cc 0c3c bbdf 0cbe
00000260: 5380 01bd f78a 99be 11c0 223e 010f 85be
00000270: 5b60 17be a08c dabd 6228 2ebc 2215 53bd
00000280: be0e 7dbe b55b 72bc 4681 333d 498b 813e
00000290: 2104 ccbb c990 86be 6698 293e a687 c6be
000002a0: c0ee 163e be55 b1bd 05cf 933d 57b7 75be
000002b0: 56bc 08bd 88c2 d13c 5563 4f3d 79de 94bc
000002c0: 49cc 573e 869a 0bba 0bc4 893c 58ad dbbd
000002d0: e2cc 59bc 619b b7bd df60 89bd 6808 52be
000002e0: 991b 033e 5f4a 813c 8cd2 29be 2e69 6ebe
000002f0: cdfc 113c 42a7 193e 5184 dcbe 0080 febc
00000300: 70be 96bd 7324 ab3d 98dc 963d b97d 24bb
00000310: 1abd c1be 3c11 be3d 9ad5 ad3d 9b49 3c3e
00000320: a4c7 cbbc 0ea5 263d 72ae 0fbe ccce b53d
00000330: 0eb9 5ebc c789 61be 3f9a 9dbe 20c1 39bd
00000340: 1913 473e 8815 f7bd 9a0f 013e 032b 40be
00000350: 8754 213c 364c 883d 6d83 a3bd 5c01 7cbd
00000360: 954a 07be 53de b7be 3afe 13be 2689 afbe
00000370: edcc 18bd 5ca9 78bd c043 35be 320d e9be
00000380: 288a a2bd 20e3 1fbd 3576 63bc ab66 f9bc
00000390: 83dd b03d 9ac9 9c3e e9d3 833e 51c2 e7bd
000003a0: be60 d9bc e72e a6be c1d5 05be 2ec2 8fbe
000003b0: 8801 18be cd1e 13be 5385 10be 793f 863c
000003c0: fe07 c63d b9ad 993d 36d1 a13e 9073 9cbd
000003d0: b122 0d3c a545 b9be 8ec0 073d 3096 d93d
000003e0: 832c ed3c 5330 d33d 6f80 32be 4c35 863d
000003f0: 5207 723e 00d9 a4bd 1c82 70be 76f2 2dbd
0.06687312 0.06943658 0.14870176 -0.23046501 -0.21187465 0.016181061 -0.12228038 0.06327003
-0.30317566 -0.043355606 0.039683297 0.2870016 -0.09981231 -0.16602117 -0.039475918 0.09971177
-0.36334628 0.12417467 0.0703441 -0.051987182 -0.10940055 -0.15676549 -0.0028710016 0.11269362
-0.2517534 -0.31191212 -0.06287949 0.11281898 -0.1450405 -0.04956987 0.15358499 -0.10567266
-0.035439096 0.19238597 -0.0532206 -0.3393054 0.18025827 -0.05529207 0.17464307 0.14409235
-0.156944 -0.036913246 0.022397287 -0.13705969 -0.49743244 0.13407387 -0.16385359 -0.35900247
0.06297272 0.18324359 -0.39940777 0.22088708 -0.25906 -0.03215793 -0.134906 -0.02194374
-0.13820566 -0.08935765 -0.07121778 -0.008908325 -0.032919012 -0.2827897 -0.3494155 -0.14951882
-0.026953684 -0.027329385 -0.053416222 -0.13231729 0.045965623 0.12201881 0.057579797 -0.10152175
-0.08625319 -0.25019866 -0.29442802 -0.041795623 -0.15056533 -0.22644566 -0.14005142 -0.013527664
-0.038705643 -0.09175867 0.02470718 -0.014242685 -0.020652685 0.046480853 -0.0065986635 0.05876691
0.09485976 -0.1844169 0.049228296 0.027094586 -0.016994355 0.10906086 -0.16585942 0.030551353
0.13440576 -0.2929382 -0.014877397 0.111939564 -0.06421197 0.22988752 -0.090076044 -0.07032181
0.054152325 -0.27176863 -0.5453208 0.06119833 0.15504192 -0.16443941 -0.054455683 -0.32510954
-0.08088429 -0.0376061 0.05861253 -0.25283977 0.20603403 -0.09040446 0.041920517 0.26680937
-0.38539955 0.30801213 -0.03180173 -0.0136769675 -0.12917322 -0.13960029 -0.34417826 0.1514718
-0.20223622 -0.059540644 -0.16603732 -0.35676742 -0.09567472 -0.20650639 0.075163856 -0.26694024
-0.2461739 -0.1723757 -0.27037412 0.0396344 -0.1180077 0.1900568 -0.13010181 0.4461015
0.1968753 -0.15349054 0.07356014 -0.059754923 0.12191878 -0.03230468 0.00859374 -0.13757221
-0.03161652 -0.29988834 0.1589358 -0.2598801 -0.1478285 -0.10671353 -0.010629745 -0.051533826
-0.24712655 -0.0147923725 0.043824457 0.2530158 -0.006226078 -0.26282337 0.16562042 -0.38775367
0.14739513 -0.08658932 0.0721722 -0.2399572 -0.033382736 0.025605455 0.05063184 -0.01817249
0.21074022 -0.0005325455 0.016817113 -0.10726422 -0.013293477 -0.08965183 -0.0670793 -0.20511019
0.12803496 0.015782533 -0.16584224 -0.2328231 0.00891037 0.1500521 -0.430697 -0.031066895
-0.07360542 0.083565615 0.07366294 -0.002509935 -0.37839586 0.09280631 0.08488007 0.18387453
-0.02487547 0.040684752 -0.1403139 0.08877334 -0.013593925 -0.22025214 -0.30781743 -0.045350194
0.19440879 -0.12064654 0.12603608 -0.18766408 0.009846813 0.06655161 -0.07984052 -0.061524734
-0.13212045 -0.35911807 -0.14452448 -0.34284323 -0.037304807 -0.06070839 -0.17701626 -0.4551788
-0.079365075 -0.039034963 -0.013883163 -0.030444464 0.08636 0.3062256 0.25747612 -0.1131636
-0.026535388 -0.3245766 -0.13069822 -0.28077835 -0.14844334 -0.14367218 -0.14113359 0.016387688
0.09669493 0.07503838 0.31604928 -0.07639229 0.008614228 -0.36185947 0.03314262 0.10624349
0.028951889 0.103119515 -0.17431806 0.06553134 0.23635605 -0.08049202 -0.23487133 -0.042467557

sequential_10/dense_56/MatMul f4 [200, 200]
00000000: 7d16 78be 38cb 74be da5f d9be c76d cdbe
00000010: 073b 72bf 314c acbe 3e65 6fbd e347 01bd
00000020: bf26 d0be 38c7 f6be 69e6 c5be 0e13 773d
00000030: 926a 173e 00bd 5fbe 6fe7 a7be 9536 61be
00000040: 1b6b bbbe 370b 0d3d 1fb2 4e3d 5f2e 90bd
00000050: b7e7 b1be f494 5cbe 24f1 efbc fb2a 95be
00000060: e846 bcbd b46a 34bf b1c1 043d b807 04bf
00000070: b865 b4bd e834 83bf 6821 abbe 13a1 eabe
00000080: e25d 0bbe 0a55 9cbe cb2d c2be 904f 10bf
00000090: b707 39be 27c0 2cbc 75b1 f5be eba9 8d3c
000000a0: 6030 d6be 6efb a9be b109 e43d 7fe0 8f3c
000000b0: c2fc 0dbf 505b cabd eedf 28be e3d0 22bf
000000c0: 100f 01bf 7281 f3be 4f35 50be d457 e6bd
000000d0: 8886 37be b2b9 13be d050 35bf a53e 83ba
000000e0: 741c c3be 99a1 23bf 7147 48be 7dd6 01bf
000000f0: 3e74 63bf 97d7 d3be 2617 bbbe 07b7 70be
00000100: 40fa 26be 024d edbc ef52 5abe 9952 3fbf
00000110: 921b 8fbe 0098 59be 4ba6 cbbe bebd d93c
00000120: ac01 02bf bde1 e6bd 9adb 97be d58e bc3d
00000130: 3b37 603d 8b7b 05bf 3c94 97be df68 88be
00000140: bb90 8abe 4a90 9fbe cadd b1be cb76 8d3c
00000150: 61cc 59bd 9b25 93be 0602 03bf 4d33 f93c
00000160: de3f 02bf 8871 92be ad29 42be 1832 d5be
00000170: 183e fbbb 80a5 51bf 1060 b2be e049 81be
00000180: 7f58 b3bd 79e7 99be e2ec a1be 9e9d 233b
00000190: 91f1 bcbe 1728 a0be dee4 29bf eefc 79be
000001a0: 8489 32bf 7513 c1be 39b3 29bf 9af7 cabe
000001b0: 0316 79be 11f0 0e3b 50c3 0bbd 0b8b 8e3d
000001c0: 0e33 bcbe ce7d e8be 3a07 03bd 50da ddbe
000001d0: 5a23 383e d2d2 fabe d9f4 07bf 81be 003e
000001e0: 4edd 683d dae2 38be b05a 4abe 681e a9bd
000001f0: 873d 4dbf b644 093e 93ff 2ebf 4f45 efbd
00000200: b68f 4cbd d233 1d3e 6954 6bbe 9957 2bbe
00000210: 5641 82be 3102 22bf 01d0 a5be 526b aabe
00000220: 5b30 2bbf 6d87 81bc 643d 693e 5c42 95be
00000230: b40a 88be 894b d4be b494 05bf ff33 c3be
00000240: 55a8 383d 88dc 4ebe 0d63 98be c159 26bf
00000250: 5341 d9be 1b40 8bbc 0e8b 93be bf42 48be
00000260: 5bb6 1fbf 82af d7be 3a72 e8be 9f28 3fbf
00000270: b623 37bd a432 263e 0119 28bf 3f06 31bf
00000280: 21b9 d7be 0b17 acbe c41e 59be 599d 17bf
00000290: a87f bcbd af33 4c3e e245 dabd 19d5 94be
000002a0: 47ad 2ebe b653 e6bc 0347 8abe 3b9a f6bc
000002b0: 05ec 07be bd8a 2bbe 042d 44be d8f1 ddbe
000002c0: fe32 0cbf e096 89be 92e2 18bf a784 05bd
000002d0: 843e 12bf 00c4 12bf d1d5 21ba 8fad 6cbe
000002e0: d403 68be d112 d2bd 2f44 f5be 6dd8 f0bd
000002f0: dcc9 f7be bb14 47bf a510 c5be 5564 67be
00000300: 5a78 54be 3416 6f3d 1086 2abe 272a 49be
00000310: 6f5e 9abd 5e8c 14bf f435 59be 29db 64be
00000320: a6de 9abd ac83 8bbe 38dd b1be 8d89 2dbe
00000330: 51c1 25bf 53af c83e 0856 58be 23f3 f6bc
00000340: 4f8e 73be c047 b1be 0332 87be 2083 323d
00000350: ccda 023e d009 8bbe d1a9 a5be d2a8 8a3b
00000360: 3da8 44be 0b15 06bd 15f2 e13c 2bb8 1fbe
00000370: 12bb 1e3e dca4 d2bc 4bc9 cabd c43f c43d
00000380: 5cdf c53e 45cd fdbe b009 8bbd deb0 b5be
00000390: 48cc 503c 7bde c6be e9c0 c0be 0654 fcbe
000003a0: b607 dcba 82f0 97bd 693b 47be 5a92 353d
000003b0: fdf6 de3d 97e1 0a3d a15c 27bd 3e48 79bd
000003c0: 5e81 923e 4a15 aabe e922 7ebd 04fa d13d
000003d0: 9329 0bbf 7de2 bc3e 90c0 523c e096 9fbe
000003e0: e1c9 dfbe 822a 233d d824 8cbd df9b 933d
000003f0: 097f e9bc 38b6 963d 618b 01ba d038 543c
-0.24227329 -0.23905647 -0.4245594 -0.40122816 -0.9462132 -0.3365188 -0.05844616 -0.031562697
-0.4065456 -0.48198867 -0.38652351 0.060320906 0.14786747 -0.21849442 -0.32793757 -0.21993478
-0.36605152 0.034434523 0.05046284 -0.070400946 -0.34747097 -0.21541196 -0.02928979 -0.29134354
-0.09193212 -0.70475316 0.03241128 -0.5157428 -0.08808464 -1.0250521 -0.33423924 -0.45826015
-0.13610032 -0.3053363 -0.37925562 -0.563714 -0.18069349 -0.01054386 -0.4798695 0.017292937
-0.41833782 -0.33199638 0.11134661 0.017563103 -0.554638 -0.09880698 -0.16491672 -0.63599986
-0.5041361 -0.47559696 -0.20332836 -0.11247221 -0.17922413 -0.14426306 -0.70826435 -0.0010013176
-0.38107646 -0.63918453 -0.19558503 -0.5071791 -0.88849247 -0.4137542 -0.36541098 -0.2350732
-0.163064 -0.028967384 -0.21320699 -0.7473541 -0.27950722 -0.2124939 -0.3977531 0.026579734
-0.507838 -0.11273525 -0.2965973 0.092069305 0.054740172 -0.52141637 -0.2960528 -0.2664251
-0.27063546 -0.3116477 -0.34739524 0.017268559 -0.053173427 -0.28739628 -0.5117496 0.03041997
-0.50878704 -0.28602242 -0.1896121 -0.4163978 -0.0076673143 -0.8189316 -0.34838915 -0.25251675
-0.08757114 -0.30059412 -0.3162604 0.0024965773 -0.3690305 -0.31280586 -0.6636485 -0.24412891
-0.6974108 -0.37710157 -0.662891 -0.3964203 -0.24324803 0.0021810571 -0.03412181 0.06960114
-0.36757702 -0.4540848 -0.031989314 -0.43330622 0.17982236 -0.48988968 -0.5310798 0.12572671
0.056851678 -0.18055287 -0.19761157 -0.08257753 -0.8017201 0.13405117 -0.68358725 -0.116831414
-0.04994174 0.15351799 -0.22981419 -0.16732635 -0.25440472 -0.63284594 -0.32385257 -0.33285004
-0.6687066 -0.015811646 0.22777325 -0.2915219 -0.26570666 -0.4146388 -0.5218003 -0.38125607
0.04508241 -0.20201313 -0.2976307 -0.64980704 -0.4243265 -0.016998341 -0.28817028 -0.19556712
-0.6238763 -0.4212609 -0.45399648 -0.7467136 -0.04471179 0.16230255 -0.6566315 -0.69150156
-0.4213343 -0.3361133 -0.21203142 -0.5922447 -0.09204036 0.1994159 -0.1065786 -0.2906883
-0.17058288 -0.028116088 -0.27007303 -0.03010284 -0.13273628 -0.16752143 -0.19157797 -0.43348575
-0.5476531 -0.2687292 -0.5972072 -0.03259721 -0.5712664 -0.5733032 -0.0006173524 -0.23113082
-0.2265771 -0.10257495 -0.47903582 -0.1176003 -0.48396194 -0.7776601 -0.3848926 -0.22596867
-0.20749035 0.058370784 -0.16652703 -0.19644986 -0.07537543 -0.58026683 -0.21211988 -0.22349228
-0.07561998 -0.27248895 -0.3473909 -0.16947003 -0.647481 0.39196262 -0.21126568 -0.030145233
-0.23784755 -0.34625053 -0.26405343 0.04358208 0.12778777 -0.27155924 -0.32356122 0.0042315507
-0.19204803 -0.032734912 0.027581254 -0.15597598 0.15501049 -0.025713377 -0.09901675 0.09582475
0.38646972 -0.4957067 -0.06788957 -0.354865 0.012744017 -0.38841614 -0.3764718 -0.49282855
-0.0016786966 -0.0741892 -0.19456257 0.044329025 0.10886953 0.033906545 -0.040859822 -0.06085991
0.28614324 -0.33219367 -0.06204501 0.10252765 -0.5436031 0.36891547 0.012863293 -0.31169796
-0.4370871 0.03983546 -0.06842965 0.072074644 -0.028502958 0.07358974 -0.00049417285 0.012952998

sequential_10/dense_57/MatMul f4 [200, 200]
00000000: a541 bd3d bde4 e93e 447b 083f 0bdd 4b3e
00000010: 86cf 0b3e d5f1 563e 8e9e 023f ab0f 26c0
00000020: 9252 7a3e 8cfe 293e 46c4 403d b345 fa3e
00000030: 5a65 013f 4006 093e 8849 4a3e f77f c03d
00000040: b45c 313f abc5 ff3d 4786 063e 228c 213e
00000050: a1c0 223e 2f37 e33e f239 053f 6511 133e
00000060: e32b 263e 1be2 013f eb0e 863e 4d85 843e
00000070: 9f75 aa3e 827e f03e 0ed6 3b3e 2474 cf3d
00000080: 41a7 1f3f ed30 293e 0c28 393e 407e d13d
00000090: 1b97 013f 1f34 673d e812 f63d f204 913d
000000a0: 321c 583e 6e6b 7d3e b78a 8c3d fb83 c03e
000000b0: 1039 d83d 40e5 8b3e 3e60 673e defd 683d
000000c0: 8ecd b23e a12b 42c0 ec82 253e 967a e43e
000000d0: db95 ed3d a1f0 f13d fbd1 1f3f 3631 663e
000000e0: d3f0 773d 5024 1b3e 8ede 3f3e 9da4 743d
000000f0: 1e81 033f 70c0 9d3d 5bd5 103f 80f6 e53d
00000100: ee18 8fbf 947c 0a3e 27e3 ba3d efdc 8a3e
00000110: 70bd 953d 14fc 873e f747 d73d 4b4c e03d
00000120: 5728 6a3e f4ef d03d 5bfe 4c3e f863 7c3e
00000130: 7f3e 953d 2c21 da3d ccab 083e b98e 8e3e
00000140: 897b 953e fbcc c53d b860 1c3e 8acf 243f
00000150: 0c7e fd3e 0810 a7bd 6f97 283e 4654 2fc0
00000160: 1a15 363e 15e0 52c0 5cb8 cb3d 9dc6 353e
00000170: 4202 173f 227b 223e 3bd6 993e 9794 613e
00000180: 6bf9 953e 8e0e 1b3e 2dfe 723e b31d 4e3f
00000190: db87 ad3d 462c d03e d40b 6f3e 2782 4f3e
000001a0: 0ee5 e53d 86c5 b33d f6aa a83d 2157 563e
000001b0: bc24 0c3e 4fef 8e3e 7028 903e 538f 173e
000001c0: a9bb 1d3e 89c2 183f 99d9 543e 4d23 943e
000001d0: bd27 113e 82ca cc3f e887 683d 544c c63e
000001e0: 8217 8a3e 924d 0a3f 34d4 c53d 17a7 403e
000001f0: fe22 b73d 992a ce3e 56bb a03f 7b5c b53d
00000200: 6445 d73e a190 603d 978a dfbc a0ec 253e
00000210: b009 43c0 ab9c 9c3e 0465 0f3e 8c5c ee3d
00000220: 158c 213e 0ecf ea3e a343 183e 7f50 1a3e
00000230: 8d68 2a3f 5144 4f3e f9a9 43c0 a878 0bc0
00000240: 68e2 3a3f df96 ec3d e88e 513e 2a2b 2b3e
00000250: 8e99 eb3e 48e9 31c0 5731 ab3d fe1d 423f
00000260: 7c5c f43d 0d4f 163f 3aa1 0d3f ef49 b23d
00000270: e70f d23d ce80 5b3f 34a6 083e 9d20 6d3e
00000280: 1409 b53d 46f1 4b3e 3f11 823d 0cca 393e
00000290: 7509 183e 062c aa3e f5da 633e 36cf 0f3e
000002a0: 9c75 3f3e 78d8 f23e 4d9c 123f 91a1 063e
000002b0: 8172 213e 060f 033e b929 fa3d 71ad ee3d
000002c0: 83c7 a53d 74c4 9c3d 69bd 263e 0354 913e
000002d0: 2be6 9a3e 321d 2f3f 2ad6 2b3f d0e9 9b3e
000002e0: bb4d 033e c4c2 b03d 77a7 433f fe92 e73d
000002f0: 2f1f c33e 153e 0f3e 95eb 933e 7e1e c33d
00000300: 6b24 413e 0040 143f ebb1 ef3e 55d6 5b3e
00000310: 31fe 123e 0116 e53f 19f6 373e 7741 c23e
00000320: e92e 1f3d f514 803e 098d e03e e0a6 483d
00000330: 8963 123e 9265 963d d98c 943e 80fe 32c0
00000340: 96a7 e63d e443 a03d 7e9d af3d 2fa6 0d3f
00000350: 927f eb3e 7cb7 9b3d 4be3 2a3e 3a0c bd3d
00000360: 04ae 173f e6b7 253e c18a 5d3d e321 0d3e
00000370: 6302 c73d 6f79 b33e a80d 9b3e 77d6 063e
00000380: 6824 093d 2066 c63e 3372 023e 4a0f 0a3e
00000390: 369c 353e 8f44 903e b99b 7f3d a1a9 263d
000003a0: 99b3 2e3f 3771 033e e2d9 cf3d 2839 9d3d
000003b0: f65d e33e f912 f53d 0a4e 9b3d da6f b83d
000003c0: 4a6a 7e3e 7fc5 283e 56a7 e23c 8722 4d3e
000003d0: b3cd 9b3d c8a7 343e 176e e03d c19d 483d
000003e0: d17d b73e b5f2 43c0 f4e5 a23d 8054 873e
000003f0: 9bb5 993d fed1 d33d dd69 053f 413d 823d
0.09241036 0.45682326 0.5331309 0.1990854 0.13653383 0.20990689 0.51023185 -2.5947063
0.2444556 0.16601008 0.04706218 0.488813 0.50545275 0.1338129 0.19754612 0.09399407
0.6928208 0.12488874 0.1313716 0.15776113 0.15893795 0.4437804 0.5204154 0.14362104
0.16227679 0.50735635 0.26183257 0.2588295 0.33292863 0.46971518 0.18343374 0.10129574
0.62364584 0.1652257 0.18081683 0.102291584 0.50621194 0.05644619 0.12015325 0.07081021
0.21104506 0.24748012 0.06862395 0.37600693 0.10557759 0.2732334 0.22595307 0.05688273
0.3492245 -3.033913 0.16163224 0.44624776 0.11600848 0.118134744 0.6242978 0.2247971
0.060532402 0.15150571 0.18737242 0.0597273 0.5136889 0.0770272 0.56575555 0.11228657
-1.1179483 0.13524085 0.09125357 0.27121684 0.07311523 0.26559508 0.10511773 0.10952052
0.22866951 0.102020174 0.20018904 0.2464751 0.07287311 0.10650858 0.13346785 0.27843264
0.29195812 0.096582375 0.1527127 0.6437918 0.4951023 -0.081573546 0.16464017 -2.7395186
0.17781487 -3.294927 0.09947273 0.17751546 0.5898782 0.15867284 0.30046257 0.22029339
0.29291853 0.15142271 0.23729773 0.8051407 0.08473178 0.40658778 0.23344356 0.20264493
0.11225329 0.08777909 0.08235733 0.20931675 0.13685888 0.27916953 0.2815585 0.14800768
0.15403618 0.5967184 0.20786132 0.28933182 0.14175315 1.59993 0.056770235 0.3873011
0.2697106 0.5402461 0.09659615 0.1881374 0.08942221 0.40266874 1.255717 0.0885553
0.42045128 0.05482543 -0.027287764 0.16203547 -3.0474663 0.30588278 0.14003378 0.11638746
0.15776093 0.45861095 0.14869551 0.1506977 0.6656578 0.20240904 -3.0572493 -2.1792393
0.7300172 0.11552214 0.2046467 0.16715685 0.4601559 -2.7798634 0.0835902 0.75827014
0.119317025 0.5871437 0.5532414 0.08705508 0.102569394 0.85743415 0.13344651 0.23156972
0.08839622 0.19916257 0.06350946 0.18143481 0.14847358 0.33236712 0.22251494 0.14043888
0.18697208 0.47430778 0.57269746 0.1314757 0.15766336 0.127987 0.12214989 0.11654175
0.080946945 0.07654658 0.16283192 0.28384408 0.3025373 0.68403924 0.67123663 0.30451822
0.1282262 0.086308986 0.76427406 0.113073334 0.3810973 0.13988526 0.28890672 0.095273
0.18861549 0.57910156 0.46815428 0.2146848 0.14354779 1.789734 0.17964973 0.3794057
0.038863096 0.2501599 0.438576 0.04898727 0.14295782 0.07343592 0.29013708 -2.7967834
0.11262433 0.07825449 0.08574961 0.553317 0.45995766 0.07603356 0.16688268 0.09230848
0.592499 0.16183433 0.054087404 0.13782458 0.09717252 0.35053584 0.30283856 0.1316775
0.033481985 0.3874979 0.12738876 0.13482395 0.17735371 0.28177306 0.062404368 0.040689114
0.68242794 0.12836157 0.1014898 0.07676917 0.44407624 0.11966509 0.07583244 0.09005709
0.24845234 0.16481589 0.027667683 0.20032702 0.076075934 0.17642128 0.10958498 0.04897857
0.35838178 -3.0616887 0.07954016 0.26431656 0.075053416 0.10342787 0.5211466 0.063593395

sequential_10/dense_58/MatMul f4 [1, 200]
00000000: a0e8 58bd 4076 a53e 18b3 ca40 ed9b 883f
00000010: 4dfb c03e b979 93c0 14e6 863c 46a4 a2be
00000020: 052a 3c3f f58f 19be 87f7 d7c0 791d c0c0
00000030: 3f9d 5f3f b2bd 5c3e b118 d940 703a 613f
00000040: 73ac 2940 c605 5c3f 1df5 dd40 5638 0840
00000050: e999 2140 2b0a f3bf d0e7 47be 48cb 6e3f
00000060: 2535 4a3f 83b1 09c0 0d5f 1ac0 453c d4c0
00000070: 09e3 2740 9e3c 153f a773 97c0 f593 c8be
00000080: 67e2 e840 ea62 f8bf 59da 2ac0 6f8a 1c40
00000090: d09a b1bf 4177 e1bf 2816 b13f 8d44 babf
000000a0: 085d 3f3e b8ae a63e a2e4 a1c0 a909 7fc0
000000b0: c736 60bf 1b73 2d40 fee9 86bf e089 bebe
000000c0: b29a 33c0 a09d a0be 0598 60c0 8a3b ac3f
000000d0: edff 3c3e 1dfe e040 acab ff3f 5240 d83f
000000e0: 515f e43f a406 7240 d1ac 1f40 dd2b c7c0
000000f0: fc75 b8be 627f 5f40 aa41 eebf b2b0 de40
00000100: 2142 8f40 1469 e140 c47f 6dbf aaf2 bb3e
00000110: 5841 dc40 2b0e 0240 cff8 bfc0 b6e5 fcbe
00000120: 6352 38c0 e8d3 34bf 1d2f b340 12e5 52bf
00000130: 4d80 45bf 4f1a 9d40 44be 49bc 3406 323f
00000140: a3c4 25bf bf54 9740 f342 963f 3b0d bfbf
00000150: ee67 3e40 3d03 8fbf c9d9 1840 6b13 2240
00000160: 2833 b7c0 5495 3a40 ac21 bfbf e3d8 33be
00000170: 50fe a53f 4dc5 1bbf 21a9 babe 334a 92c0
00000180: f0fc cbc0 4b99 1cc0 c790 e640 8b30 623f
00000190: 7839 093e 657d 923e ce4a 3abf 8efe c8c0
000001a0: dcc7 2b40 8c98 fa3f 2072 3b40 b77a 55bf
000001b0: 9baa bb3f 1396 ad3d e0cb 0c3f b30b 08c0
000001c0: 297d d1c0 23a1 1a3e d055 d2c0 2d43 df40
000001d0: cb71 893f 0e44 b5bf 1c03 69bf a276 83c0
000001e0: 13ba 593f 4f0c cbc0 a214 3dc0 7c09 7e3f
000001f0: 1b6b 89bf 3095 4cbf d429 30c0 e41f 263e
00000200: 5e78 f5be a18b 7640 4b15 003f 6962 3840
00000210: 2ced 98bd b126 27bf 2fb2 00c0 b688 cf40
00000220: 90dc 58c0 7e3d fc3d 81ae 7540 2e05 803f
00000230: 4f51 08c0 96e9 583f d82f d740 b8ad 9540
00000240: 3594 cd3f 8b33 0e40 0514 6d40 a2bb db3e
00000250: 2ee1 ed3f 4c1b d4c0 c347 33bf 972a d9c0
00000260: 2d62 a63f 9c75 13c0 d5e7 9440 0e07 cc3d
00000270: be9f 1940 aa67 643f eb1c a53f af57 b8bf
00000280: d1ee a8bd fe03 eabf d4fa b4be d37f b2bf
00000290: 4be2 e840 d6b6 c73f 78e2 3940 73fc 8a3f
000002a0: 8c51 be3f e0fc b1bf 12d4 bfbe 157e 39bf
000002b0: 5918 d8bf 8d35 0540 71e5 293d a16c 86bf
000002c0: ea7a f63b b753 cb40 4ea5 aabe 4a20 6a40
000002d0: ae1a 2fbf 9ba9 123e 7369 bc40 67bd 4440
000002e0: 7b6e 3640 666c 8cbe 19d8 d1be 1fad 08c0
000002f0: f193 b3c0 eaba d1c0 e37d 8f3f b499 3d3f
00000300: 53f7 13c0 0e55 453f f265 d9c0 3b5a d7c0
00000310: 3f36 da40 4b56 d640 6bdf d2c0 fa53 e03f
-0.052956223 0.3231678 6.334362 1.0672585 0.37691727 -4.6086087 0.016467132 -0.31765956
0.73501617 -0.14996321 -6.7489657 -6.0035977 0.87349313 0.21556738 6.784264 0.87979794
2.6511505 0.8594631 6.936171 2.1284385 2.525019 -1.8987478 -0.19522023 0.9327893
0.7898734 -2.1514595 -2.4120514 -6.632357 2.6232321 0.5829562 -4.7328677 -0.39175382
7.277637 -1.9405186 -2.669577 2.4459493 -1.387537 -1.7614518 1.3834887 -1.455217
0.18687832 0.32555175 -5.0591593 -3.9849646 -0.87583584 2.7101505 -1.0540159 -0.37214565
-2.8063169 -0.31370258 -3.5092785 1.345567 0.18457003 7.0310197 1.9974265 1.6894629
1.7841588 3.7816553 2.4949229 -6.2241044 -0.36027515 3.4921498 -1.8613789 6.9590693
4.4768224 7.044077 -0.9277308 0.36708575 6.8829765 2.0321147 -5.999122 -0.49394006
-2.8800285 -0.70635843 5.599501 -0.82380784 -0.77148896 4.9094615 -0.012313429 0.69540715
-0.6475317 4.729095 1.1739181 -1.4925913 2.9750934 -1.1172863 2.3882926 2.5324352
-5.7249947 2.9153643 -1.4932151 -0.17563204 1.2968235 -0.6084793 -0.3645716 -4.5715575
-6.374626 -2.4468563 7.205173 0.8835532 0.13400829 0.28611293 -0.7277039 -6.2810736
2.6840734 1.9577804 2.9288406 -0.83390373 1.466144 0.0847589 0.5499859 -2.125714
-6.5465283 0.15100531 -6.572975 6.97695 1.0737852 -1.4161394 -0.9102037 -4.1082315
0.8504955 -6.3452525 -2.9543843 0.9923322 -1.0735811 -0.7991514 -2.752553 0.16223103
-0.47943395 3.8522723 0.5003249 2.8810065 -0.07467112 -0.65293413 -2.0108755 6.4854383
-3.388462 0.12316416 3.8387759 1.0001581 -2.1299627 0.84731424 6.7245903 4.677456
1.6060854 2.221896 3.704347 0.4291659 1.8584344 -6.628332 -0.70031375 -6.786449
1.2998711 -2.3040533 4.6533 0.09962283 2.400375 0.8922068 1.289945 -1.4401759
-0.082486756 -1.8282468 -0.35347617 -1.3945259 7.2776237 1.5602672 2.9044476 1.0858291
1.4868636 -1.3905296 -0.37466484 -0.7245801 -1.688243 2.0813935 0.041478578 -1.0501901
0.0075219767 6.353969 -0.33329242 3.6582208 -0.68400085 0.14322512 5.887872 3.0740602
2.8504932 -0.2742645 -0.40985182 -2.1355665 -5.6118093 -6.5540667 1.1210293 0.7406266
-2.3119705 0.7708291 -6.7936945 -6.7297645 6.819122 6.698034 -6.5897727 1.7525628
